lightning_logs/version_5/checkpoints/epoch=8-step=270.ckpt (torch, 199239 bytes, 30 tensors)

rnn.weight_ih_l0 f4 [128, 6]
000000 e0 a5 1e bd b0 1c 12 3d 1c 5a 6a be 20 c2 33 bf
       -0.03873241 0.03567189 -0.22885936 -0.70218086
000010 9a 23 85 3d 40 a8 3a bf 61 57 1d 3e 90 84 07 3d
       0.06500931 -0.7291298 0.15365364 0.033085406
000020 4c 9d d2 3f 2a 28 23 3f 96 ba 16 40 21 74 e5 be
       1.6454253 0.6373316 2.3551383 -0.44815162
000030 95 8b 0b 3e d8 0c d6 3c df cf 02 3f 00 41 db 3f
       0.13627465 0.026129171 0.51098436 1.7129211
000040 ba 66 32 3f 19 38 35 3f 86 0b 93 bd 7a 2a f0 3d
       0.69688 0.70788723 -0.07179932 0.11726852
000050 29 52 bd 3f 6a fe ab be 30 15 01 40 75 83 35 bf
       1.4790698 -0.3359254 2.0169182 -0.7090371
000060 70 ae 88 3c fd c9 32 be a5 26 77 bf 7a f3 02 3f
       0.01668474 -0.17459865 -0.9654334 0.51152766
000070 b0 b5 8f bf ac d5 69 3e 76 1c 6b bd c6 b8 df 3d
       -1.1227322 0.22835416 -0.05740019 0.109239146
000080 c6 f0 e0 bd c7 1a eb 3f d3 27 a9 bd 18 55 8a be
       -0.10983424 1.8367547 -0.08259549 -0.27018046
000090 38 8c 42 3d d8 5a 44 bd f1 e5 28 bf 32 50 d5 3e
       0.047497004 -0.047938198 -0.6597586 0.41662747
0000a0 98 63 27 bf f8 e3 4d be fe fd d0 3d 70 8e 01 3d
       -0.65386343 -0.20106494 0.10204695 0.03162998
0000b0 43 d2 f7 bf 15 a3 ab bf cd 80 3a c0 cb b2 c5 3e
       -1.9361042 -1.3409144 -2.9141114 0.3861297
0000c0 91 d8 0a be 8d 88 14 3e f6 f1 0f bf f8 fd 34 40
       -0.13559176 0.14505215 -0.5622858 2.828001
0000d0 60 95 c8 be 87 5a 50 3e cf aa 0d 3e e0 9d 00 be
       -0.39176464 0.20347033 0.1383469 -0.12560225
0000e0 5b c3 18 be 72 16 e1 3f 31 e6 c0 bc 2e 2c 04 3f
       -0.14918272 1.7584975 -0.023547264 0.5162991
0000f0 7c de 5d 3d f8 da 16 bd 19 fe 23 3f c2 1e cc be
       0.054167256 -0.03682992 0.640596 -0.39867216
000100 64 12 07 3f 7c f2 d7 be 09 d1 22 3e b0 4c 71 3d
       0.52762437 -0.42177188 0.15900053 0.058911026
000110 b0 7c f1 bf 19 78 82 3e 61 a8 fc bf 62 ef 3f bf
       -1.8866177 0.25482252 -1.9738885 -0.74974644
000120 1a 8a f3 bd e4 a3 92 3d 22 cf 00 3f d9 03 05 bf
       -0.11891575 0.07160166 0.5031606 -0.51958996
000130 5b 41 34 3e 9a 8b 86 bf fe 16 c0 3d 70 56 92 bd
       0.17603056 -1.0511353 0.093793854 -0.07145393
000140 88 d7 a9 3e 3b a6 2a 3f 6a 59 48 3f 6f 95 06 c0
       0.3317225 0.666599 0.78261435 -2.1028707
000150 e6 b3 b6 bd 10 c1 5c 3d 37 0c cc 3d 8b a1 25 3f
       -0.08921032 0.053895056 0.09963267 0.6469962
000160 49 05 ec 3e b2 92 53 3e 39 45 03 be eb 47 c1 bd
       0.46097782 0.20661429 -0.12819375 -0.094375454
000170 c5 54 66 3f 7b 1c 87 3f 6a 48 b3 3f 9f 98 05 bf
       0.899731 1.0555567 1.4006474 -0.52186006
000180 2a 54 cf bd 90 e0 34 3d 88 dd 0f 3e 2b 35 9d bf
       -0.10123475 0.044159472 0.14049351 -1.228185
000190 44 98 02 3d 21 07 24 3f 82 93 19 be 75 5c c7 bd
       0.031883493 0.6407338 -0.14997676 -0.09734432
0001a0 82 8b c4 bd 32 7f c6 bf 47 b4 21 3f 13 ec cf be
       -0.095969215 -1.5507567 0.63165706 -0.40609798
0001b0 a8 21 5f 3d 7a d5 28 be ef 11 ab be 41 6a 96 3e
       0.054475456 -0.16487685 -0.3341212 0.2937794
0001c0 68 80 48 be 67 8c e3 be 22 fe 9b bd bd bd d8 bd
       -0.19580233 -0.44443056 -0.07616831 -0.10583065
0001d0 63 ab ae bf 71 75 95 3f f6 dc 0e c0 14 64 01 3f
       -1.3646053 1.1676465 -2.2322364 0.5054333
0001e0 68 80 f8 bd c9 36 d3 bd bf 81 d2 3f dc 14 88 be
       -0.121338665 -0.10313184 1.6445845 -0.26578414
0001f0 63 9a 55 40 b5 a6 2b 3e 9b bf 1b 3e 08 9c 61 3d
       3.337548 0.16762812 0.1520981 0.055080444
000200 a4 8b 77 bf 37 55 7a bd 80 35 5d bf 43 10 0f bf
       -0.9669745 -0.061116423 -0.8640976 -0.5588419
000210 41 42 16 be 59 f6 33 be db db e5 3e f9 a7 2a c0
       -0.14673711 -0.17574443 0.448943 -2.6665022
000220 be c0 44 3f 05 28 56 bf df 64 06 3e bf e0 04 be
       0.768566 -0.83654815 0.13124417 -0.12976359
000230 08 9c 58 bf 14 cb d7 be 19 d2 1d bf a1 4d 81 bf
       -0.84613085 -0.42147124 -0.6164871 -1.0101815
000240 b7 e6 24 3e c4 88 0f be e2 d5 d3 3f 3f 35 bd bf
       0.16103636 -0.14017016 1.6549647 -1.4781874
000250 4d 3f e7 3f 63 58 d3 bf 0d e2 24 3e f6 db 04 be
       1.8066193 -1.6511348 0.16101857 -0.12974533
000260 50 49 1f 40 1e 17 f9 3e 90 10 3d 40 a5 51 f0 be
       2.4888496 0.4865045 2.954136 -0.4693729
000270 ad 89 24 3e c4 1d 1f 3d 6e 92 54 3f c2 13 5f bf
       0.16068144 0.038846746 0.83035934 -0.87139523
000280 5c 94 8d 3f f2 7c 0a bd d4 db a5 bd 67 7c 1b 3e
       1.1060901 -0.033810563 -0.080985695 0.15184174
000290 95 a1 df 3d 02 0e 11 bf 10 e4 b8 bc 02 fb 35 3f
       0.10919491 -0.56662 -0.022569686 0.7108613
0002a0 fe 25 ca 3d b8 06 39 bd f3 57 c4 3e e1 7e 90 bf
       0.09870528 -0.045172423 0.3834835 -1.128872
0002b0 06 c5 89 bf aa 78 25 3e c3 1d 0c 3e 3d 6b 2a be
       -1.0763252 0.16159311 0.13683228 -0.1664247
0002c0 81 68 b7 3e 57 6c bd bd 1e 60 2f 3e ab 39 2d 3f
       0.35821918 -0.0924918 0.1712651 0.6766612
0002d0 96 f6 bc 3d 8e 41 be 3d 15 16 54 be 5e 1e 26 bf
       0.0922672 0.09289847 -0.20711549 -0.64890087
0002e0 5c a4 fe bd 3e e4 53 bf 90 d2 ff bc 9c c6 57 bd
       -0.12433693 -0.82770145 -0.031228334 -0.052679643
0002f0 92 89 50 40 be 72 03 3e cd df 65 40 d6 ed 5b bf
       3.2583966 0.1283674 3.5917847 -0.85909784
000300 00 0e 29 3b 00 ef 2c bc a2 77 2f 3d c9 42 b6 be
       0.0025795698 -0.010555029 0.0428387 -0.35597828
000310 64 26 e8 bc 87 40 3a bf 15 71 18 3e b2 08 8d 3d
       -0.028338619 -0.7275471 0.14886887 0.06886424
000320 d6 83 cc bd b4 c7 5a bf b1 3b b7 3d 83 4d fc be
       -0.09986083 -0.8546097 0.08946932 -0.49277887
000330 a2 05 6c bd 20 86 74 3d 04 2c ca 3e c8 e0 b9 be
       -0.05762256 0.059698224 0.39486706 -0.36304307
000340 9f 72 00 3f c1 c9 22 3f 00 8b e4 bc e5 1b 2f 3e
       0.501749 0.635891 -0.027898312 0.17100485
000350 13 2c bd 3f b9 8a 33 bd 0b b8 f7 3f 18 d2 0f bf
       1.4779075 -0.043833468 1.935304 -0.5617995
000360 e2 54 ea bd ab 1f 04 3e 22 53 5e bf 18 24 2e 3f
       -0.11441971 0.12902705 -0.868456 0.68023825
000370 32 48 84 bf 2a b7 c4 3e 83 25 09 3e c0 f1 83 3d
       -1.0334532 0.38420993 0.13393216 0.064425945
000380 f9 db 84 3c d7 a3 9e 3e bb de ca bd 50 b5 e0 be
       0.016218172 0.30984375 -0.09905764 -0.4388833
000390 1e d1 ad 3d 1d 54 18 3e 6c 8c 13 bf 06 f5 bd be
       0.084871516 0.14875837 -0.5763614 -0.37101
0003a0 7b d8 49 bf 10 86 18 3d a3 17 1b be f2 50 29 be
       -0.7884595 0.037237227 -0.15145735 -0.16534784
0003b0 79 e6 b1 bf b5 b7 d4 be b2 18 dd bf f9 ec 9c 3e
       -1.389846 -0.41546407 -1.7273161 0.30649546
0003c0 a8 f1 03 bd c1 d0 fe bd 55 26 dd be fa 32 a7 3e
       -0.032212883 -0.124421604 -0.43193308 0.3265608
0003d0 0f 6f 88 be b6 c2 85 3e 54 4a 68 bd 34 ca 04 be
       -0.2664723 0.26125115 -0.05671151 -0.1296776
0003e0 08 d1 05 3e b8 7c 69 bd 71 c6 f5 3d b9 ab d8 3e
       0.1306802 -0.057003707 0.1200074 0.42318514
0003f0 ae 8e ca 3d 8f 0d fc bd 41 4d d5 3e 1f 9f 17 3e
       0.09890495 -0.123072736 0.41660503 0.14806794

rnn.weight_hh_l0 f4 [128, 32]
000000 2c 4b 6b 3d 61 ee a1 3e 6e 1f d6 be 19 bc 91 3f
       0.057444736 0.3162718 -0.41820854 1.1385528
000010 95 55 1f 3f 41 8b 6c 3d 5f f2 fd 3d 72 15 17 bf
       0.6223996 0.05774999 0.12399744 -0.590171
000020 f9 cc 84 3e 03 dc d9 bd 09 2d 1c 3f 12 46 a1 be
       0.25937632 -0.10637667 0.6100622 -0.31498772
000030 d7 ef 7c bf de d6 13 bf 1b 80 57 3e 5b e1 62 bf
       -0.98803467 -0.57749736 0.21044962 -0.88625115
000040 60 74 88 be c5 d8 1e bf 4b 3f 30 3f 82 0d 93 3e
       -0.26651287 -0.62049514 0.6884658 0.28721243
000050 5d 68 5b bf 16 e5 7e bf 1b 58 62 3f 07 de fa be
       -0.8570612 -0.9956831 0.8841569 -0.48997518
000060 99 dc cb 3e 7c 72 d9 bd 81 2f 43 bf 00 b4 96 3e
       0.3981674 -0.10617539 -0.7624436 0.29434204
000070 92 63 c6 3e 97 7a 47 3e 5e 0f 6b 3e c3 76 b0 3d
       0.3874784 0.19480358 0.22955081 0.08616402
000080 6f 31 0b be 1c 5d 37 c0 a8 bc 15 bf af 44 08 bf
       -0.13593076 -2.865058 -0.5849099 -0.532298
000090 00 48 cc bf 40 93 6d 3e cb f0 85 bf 5a 36 b4 bf
       -1.5959473 0.23200703 -1.0464109 -1.4079087
0000a0 3d 6d 21 3e a8 ee 43 3f 50 e4 fc bf ac 67 09 bf
       0.15764327 0.76536036 -1.9757175 -0.53673816
0000b0 cd f8 2c 3f fc fe b3 3f 37 35 13 3e b5 13 04 3f
       0.6756714 1.406219 0.14375769 0.5159257
0000c0 ba ac 80 3f f8 8d 38 bf 80 41 c8 bd d5 5b 07 be
       1.0052712 -0.7209163 -0.09778118 -0.13218625
0000d0 1f 1c c3 3f e9 b0 46 be 9f 28 ab be 1e a4 86 bc
       1.5242957 -0.19403423 -0.3342943 -0.016435679
0000e0 86 15 f8 3e 47 6a 54 bf 97 44 8b 3d e8 db 4a bf
       0.4845392 -0.82974666 0.06800192 -0.792418
0000f0 ee 2a 55 3e 9b 95 9f bf 13 27 56 be 00 70 20 3f
       0.20817158 -1.2467531 -0.20913343 0.626709
000100 52 ac 1d 3e f1 1a e9 be 7e 67 48 3f c5 e2 9e bf
       0.15397766 -0.45528367 0.78282917 -1.2412955
000110 c9 d5 b6 be a2 16 e1 be 15 b7 92 bf 51 ce 31 3f
       -0.3570998 -0.4396258 -1.1462122 0.6945544
000120 33 a9 fd bd 42 27 d7 be 1f df 74 bf 96 2f d8 3e
       -0.12385788 -0.4202214 -0.95652956 0.42223805
000130 17 cf 3a 3f 3d e8 a8 3f 06 1e 2e 3e cb d0 5c 3f
       0.72972244 1.3195873 0.1700364 0.8625609
000140 66 22 95 be 08 2a 67 3f 08 34 1f bf c4 c3 ae bf
       -0.29127806 0.9029851 -0.6218877 -1.3653493
000150 bf 4c b1 3f 86 11 a0 3f 37 c9 9e be ca 58 a9 3f
       1.3851546 1.2505348 -0.3101289 1.3230221
000160 c4 e2 5c 3d 33 19 8a bf a0 41 45 3f 3d 4b 02 3e
       0.053927198 -1.078894 0.7705326 0.12724014
000170 34 5c c3 bf c7 7d 2b 3e 72 ed f3 be dc 25 bd bf
       -1.5262513 0.16747199 -0.47642094 -1.4777179
000180 42 c7 89 bc 6b 18 f1 3f 11 9a 52 bf a1 33 8f bd
       -0.016818646 1.8835577 -0.82266337 -0.06992269
000190 2f 9c ef 3e 54 83 43 bf 9e d2 b8 3e 56 99 b3 bf
       0.46798846 -0.76372266 0.36098188 -1.403117
0001a0 b7 5d 39 3d d3 d0 73 3f a9 73 fc 3d 72 ee df bf
       0.04525539 0.95240515 0.12326748 -1.7494643
0001b0 a6 c2 36 3f 4b c8 2f 3f 6b e4 0e be f7 b4 4d 3d
       0.7139076 0.68665 -0.13954322 0.05022141
0001c0 19 54 a8 3f 0b af ca bd be ba 17 3f 37 a4 37 3f
       1.3150665 -0.09896668 0.5926932 0.71734947
0001d0 a5 a1 fb be d4 e2 7b be 87 91 88 3f e7 15 62 bf
       -0.49146762 -0.24598247 1.0669411 -0.8831467
0001e0 c9 fa ad be b6 36 04 3f bd ed 6f 3f 7b 15 97 bf
       -0.33980396 0.5164598 0.93722135 -1.180343
0001f0 9e af 53 3f b2 4c 97 bf 05 4a 01 bd c1 2a 8b 3c
       0.82689846 -1.182028 -0.03156473 0.01698816
000200 1b 55 30 3e a9 dc 23 be b6 1c ba 3f b1 1c cd bf
       0.17219965 -0.16002144 1.4540012 -1.6024381
000210 36 5f 91 bf f0 f8 85 3f 37 0f 7f bf 24 8f 33 3f
       -1.1357181 1.0466595 -0.9963259 0.7014029
000220 28 8f 76 be 8b 8c f5 bc d7 cb 35 be 9a 21 51 3f
       -0.24078047 -0.029974243 -0.1775354 0.81691897
000230 1a 80 3c be 81 12 1c be 24 fd 97 3e d8 4b 6b 3f
       -0.18408242 -0.15241434 0.29685318 0.91912603
000240 9f f7 44 3d 5a aa 9a 3f 40 a8 73 bf 2a 00 af bd
       0.048087712 1.2083237 -0.95178604 -0.08544953
000250 3d 99 48 bf 64 c2 51 3f fe 27 5e 3e 91 7f 7f 3f
       -0.78358823 0.8193724 0.21694943 0.99804026
000260 72 dd 0d 3f 90 99 9d bf b6 c9 c4 3e 78 fe 0b 3d
       0.55416024 -1.2312489 0.38435143 0.034178227
000270 92 db 0c bf ad 5a 87 bd 6a 1c b0 3e 3a b9 c3 bd
       -0.5502254 -0.06609092 0.34396678 -0.095568135
000280 c3 59 48 3f d7 b7 91 3e ef f0 08 3f 61 62 ab bf
       0.78261966 0.2846057 0.53492635 -1.3389398
000290 01 ff e6 3e cf b7 20 bf eb 4f 3d 3b d3 c6 9c 3e
       0.45116428 -0.6278047 0.0028886746 0.3062044
0002a0 1f 80 86 bf 6e 23 b2 be 29 b1 cf bf 62 b9 68 3f
       -1.050785 -0.34792656 -1.622594 0.9090787
0002b0 64 d5 88 bf 1d c7 39 3f 21 21 5c bf 5e b7 46 3f
       -1.0690122 0.7256945 -0.8598805 0.77623546
0002c0 7d 76 53 bf 28 51 ce 3e da 91 67 bf 7c 13 cb be
       -0.82602674 0.40296292 -0.90456927 -0.39663303
0002d0 01 96 80 3f 08 05 91 3f e3 b7 99 be c6 30 0b 3f
       1.0045778 1.132966 -0.30023107 0.543713
0002e0 91 b8 51 bf f4 d7 18 bf 03 f2 b1 3f 95 4a 76 be
       -0.8192225 -0.5970452 1.3901981 -0.24051888
0002f0 3c 87 21 3f ab e2 0b 3e 62 0b ba bf d7 26 53 3e
       0.63096976 0.13660686 -1.4534724 0.20620285
000300 4f f4 0b bf c2 8a 9d be d7 6e ac 3f 9c 46 7e 3f
       -0.5466966 -0.30769926 1.3471326 0.9932649
000310 a1 70 f0 3d 5d 32 f0 be ca b9 ce 3e 71 30 b2 3f
       0.11740232 -0.46913424 0.4037612 1.3921033
000320 61 00 48 bf 02 a3 a6 bf 59 1e ab 3f fb 61 79 3f
       -0.7812558 -1.3018496 1.3368636 0.9741513
000330 ea 2b c9 be 34 83 2f bf b2 9e 96 be 87 af 3c bf
       -0.39291316 -0.68559575 -0.2941795 -0.73705333
000340 6a 92 a3 bf bb 1d 0c bf da 95 8f bf f8 0f 36 bf
       -1.2779057 -0.54732865 -1.1217606 -0.71118116
000350 d9 5a 98 bf 1f e5 93 3e 87 8e 98 3e 35 14 3a 3f
       -1.1902725 0.28885743 0.2979624 0.72687083
000360 63 76 43 bf e6 d4 6a 3f 98 83 97 bf 8c 44 ae 3f
       -0.7635252 0.9173111 -1.1837034 1.3614669
000370 bb 1d a6 bf c7 75 93 3f fa 96 42 3d 3a ee 54 3f
       -1.2977823 1.1520318 0.047507264 0.83176005
000380 19 dd 08 3e dc 07 64 bf 0b 69 3a 3f 70 75 66 3d
       0.13365592 -0.8907449 0.7281653 0.05626434
000390 2a 9a d8 be 42 52 c5 3e 57 8d 10 3f f7 29 35 3f
       -0.42305118 0.3853932 0.5646567 0.7076716
0003a0 46 a3 e6 3e 1c 8b 63 bf 64 71 10 3f 95 48 e0 3f
       0.45046443 -0.8888414 0.5642302 1.752215
0003b0 90 32 c7 be 55 42 89 be 0e 18 a8 3e c9 6b 98 3f
       -0.38905764 -0.2680842 0.32830852 1.1907893
0003c0 51 dc 75 bf 52 71 6b 3e d9 24 35 3f 9e a2 ce be
       -0.960393 0.22992447 0.7075935 -0.40358442
0003d0 22 b2 2d bf 4b 74 64 3c c8 ac dc bf 29 58 0c 3e
       -0.67849934 0.013943742 -1.7240229 0.13705505
0003e0 45 f0 3d bf 46 73 51 be ec c9 c6 bf b9 24 99 3f
       -0.7419475 -0.2045413 -1.5530372 1.1964332
0003f0 39 df 88 bf 7c 0b 3d 3f d2 fd 06 3f 92 b2 32 be
       -1.0693122 0.7384565 0.5273105 -0.17450932

rnn.bias_ih_l0 f4 [128]
000000 8d 78 8c bf dc 1c a9 be 6a 8f 82 3f e4 74 26 bf
       -1.0974289 -0.3302983 1.0200016 -0.6502211
000010 71 9a 9f 3f 3b 85 1a be f6 e7 52 bd aa 7f 10 3f
       1.2469007 -0.15089886 -0.051490746 0.564448
000020 e7 09 aa bd 8e b4 17 3f b1 69 3e bf ba 3c c3 bd
       -0.0830267 0.5925988 -0.7438002 -0.09533067
000030 cb 95 1a be 04 7f e8 bf f1 7b 65 be 11 aa ff be
       -0.15096204 -1.8163762 -0.22410561 -0.49934438
000040 d4 5d 28 3f 87 bc 1e bf 69 ab a9 be b4 b4 1f 3f
       0.6576817 -0.6200642 -0.33138588 0.62385106
000050 f5 39 80 bf 6f 79 08 bf 49 ab a8 bd f6 b4 72 bd
       -1.0017687 -0.5331029 -0.08235795 -0.05925461
000060 00 78 a7 be 36 04 1e bf ac 12 19 be 70 c6 48 3f
       -0.3270874 -0.61725175 -0.14948529 0.7842779
000070 d3 41 cb 3e 8e 03 7f 3f ea b2 08 bf f8 3b 61 bf
       0.39698657 0.996148 -0.53398 -0.8798213
000080 f0 b5 99 bf e2 cd 98 bf aa 29 d4 3e af 5e 16 bf
       -1.2008648 -1.193783 0.41438037 -0.58738226
000090 db 9b 8b 3f 4f ff ac bd 46 67 fb 3e 4b 57 a3 3c
       1.0906938 -0.08447134 0.4910223 0.019939085
0000a0 4a 22 e6 3e 39 aa 64 3f 0d 33 de be d6 16 1d 3e
       0.44948035 0.8932224 -0.43398324 0.15340742
0000b0 b4 76 90 bf a4 56 72 bf cc 52 17 3d b2 82 ab 3e
       -1.1286225 -0.94663453 0.036944196 0.3349815
0000c0 b0 74 3b 3f 28 21 37 bf 6b d5 ef 3e 7d 8c 2a bf
       0.73224926 -0.7153497 0.46842512 -0.6662062
0000d0 97 88 b6 bf 38 1c a7 be b8 fc 6b bf 0b 9d 16 bf
       -1.4260434 -0.32638717 -0.92182493 -0.5883338
0000e0 42 9e 86 3e c0 64 50 bf 17 c0 6f bb 7a 00 94 3f
       0.26292616 -0.8140373 -0.0036583 1.1562645
0000f0 45 19 94 be f7 38 5e 3f 1a b9 27 bf d4 0e ac bf
       -0.2892553 0.8680567 -0.6551682 -1.3442025
000100 6c 85 84 3d 10 92 ea 3d b9 2c 02 3f 2e e0 92 bd
       0.06470761 0.114536405 0.5084949 -0.07171665
000110 7f 81 1e 3e 2e f2 82 be d2 8b d2 3e cc 12 22 3d
       0.15479086 -0.25575393 0.411223 0.039568707
000120 47 df 24 bf 03 9f d0 be 24 9e b0 3e bf ef 35 3f
       -0.64403194 -0.40746316 0.34495652 0.7106895
000130 37 aa 3d bf 2e bd 8e be d1 fa 62 bf fe 1f 7d 3d
       -0.7408785 -0.27878708 -0.88663965 0.06179809
000140 9b 5b b2 be 35 6f 49 bf 85 c2 ea be 00 92 aa be
       -0.34835514 -0.78685313 -0.45851532 -0.33314514
000150 7d e4 26 be 57 a3 e2 3e 07 24 c4 3e 52 2b c8 be
       -0.16298099 0.44265243 0.38308737 -0.3909555
000160 65 0b a2 bf c7 2a 0b 3e 30 ee df bd 37 79 32 3e
       -1.2659727 0.13590537 -0.109341025 0.17429052
000170 e1 9e 12 bf 2f 3d af 3e 0e 2f 3e 3d 48 04 29 3f
       -0.5727368 0.34226367 0.046431594 0.6602216
000180 77 1a 7e bf ca 92 1c bf 8c 45 86 3f 4b 48 17 bf
       -0.9925913 -0.6116148 1.0489974 -0.59094685
000190 95 21 fb bc be b7 5e be 92 a0 6a 3e 3a 6f 67 3f
       -0.030655662 -0.2174978 0.22912815 0.90404093
0001a0 2a 33 84 3e 22 ac 3f 3f 7d 6f a1 bf d6 ea ac 3e
       0.25820285 0.7487203 -1.2612149 0.33772916
0001b0 4b 7f 2d bf 85 84 9e bf 6d b7 95 be 59 f0 8f 3f
       -0.6777236 -1.2384192 -0.29241505 1.1245223
0001c0 e8 7a 4a 3f 71 f7 39 bf d6 c8 86 bf 55 c1 45 bf
       0.7909379 -0.7264319 -1.053004 -0.77248126
0001d0 37 b0 33 be 1c 9f 84 bf 15 a8 32 bf 3d 8a c6 bd
       -0.1754769 -1.0361056 -0.6978772 -0.096943356
0001e0 ec 03 83 bf 0c 73 26 bf eb a6 67 bf f7 5e 77 3f
       -1.0235572 -0.650193 -0.9048907 0.9662928
0001f0 d2 e4 b3 bd b9 6f 4c 3f 95 0b 6a bf 5e 68 45 bf
       -0.087838784 0.79857975 -0.9142392 -0.77112377

rnn.bias_hh_l0 f4 [128]
000000 38 a1 8b bf 17 ab b6 be e1 02 64 3f 30 3d 4a bf
       -1.0908575 -0.35677406 0.8906689 -0.78999615
000010 39 90 a6 3f 2b e2 8f be 2f 43 1d 3e 74 5d 32 3f
       1.3012763 -0.2810224 0.1535766 0.6967385
000020 98 5d 88 bb 1c 32 e3 3e 36 71 24 bf 7f 1f 07 3e
       -0.004161548 0.44374168 -0.64235246 0.13195609
000030 a0 e3 9a be 8a d4 f3 bf 50 37 f5 bd 70 0c e8 be
       -0.3025179 -1.9049237 -0.11973441 -0.4532199
000040 c0 b8 5b 3f c9 60 d0 be 6b 3a a8 be 6d d0 33 3f
       0.8582878 -0.4069884 -0.3285707 0.7023991
000050 d8 05 7a bf 05 e2 e9 be 9c ad 9b 39 bc 1f d5 bd
       -0.97665167 -0.45680252 0.00029693253 -0.104064435
000060 29 db eb bd 10 bb fe be 8b 6a c3 be d8 30 5a 3f
       -0.11516411 -0.49752092 -0.38167223 0.8523078
000070 36 69 cd 3e 0a d7 7c 3f 71 55 08 bf a6 f6 45 bf
       0.40119332 0.98765624 -0.53255373 -0.7732948
000080 ac 8f 8f bf a2 5b 89 bf 4c 1b a7 3e a5 83 fe be
       -1.121572 -1.0731089 0.32638013 -0.49709812
000090 1b 0d 91 3f 96 71 31 be 54 f4 49 3e 62 45 69 3e
       1.1332124 -0.17328486 0.1972211 0.22780374
0000a0 8b dd 83 3e b5 6d 8c 3f 18 57 27 bf 5e e7 b3 bd
       0.2575496 1.097098 -0.6536727 -0.08784364
0000b0 03 f9 a1 bf 05 d7 4a bf d4 a3 93 3d c0 eb 21 3f
       -1.2654117 -0.79234344 0.07208982 0.6325035
0000c0 94 92 67 3f b0 ef c8 be 06 74 eb 3e 61 ae ec be
       0.90458035 -0.39245367 0.45986956 -0.4622679
0000d0 93 6b 9f bf 74 7d 61 be 9b cf 6b bf 33 86 2e bf
       -1.2454704 -0.22020513 -0.92113656 -0.6817352
0000e0 36 b6 c5 3e 84 f7 58 bf c5 7c 70 be 95 b6 61 3f
       0.38615578 -0.8475268 -0.23485096 0.88169223
0000f0 42 2c 02 bf b6 76 83 3f 89 35 30 bf e4 82 9f bf
       -0.5084878 1.0270603 -0.6883169 -1.246182
000100 8e e2 d4 3d 65 f0 ca 3c f3 f3 00 3f 92 6d 41 3e
       0.103947744 0.024772832 0.50372237 0.18889454
000110 00 a4 2e 3d 1b 1f ca be 6f 24 24 3f 8c c9 ad 3d
       0.04263687 -0.39476857 0.64118093 0.08485708
000120 ad d2 de be fd b3 0b bf d0 4b 83 3e 12 49 dd 3e
       -0.43520108 -0.54571515 0.25643778 0.4321981
000130 91 0f 55 bf 23 10 32 be ab 0a 7e bf 5b b6 49 3d
       -0.8322688 -0.17388968 -0.9923503 0.049246173
000140 5a 09 6d be 8c a7 19 bf b5 d7 d2 be 92 b2 e2 be
       -0.23148099 -0.6002128 -0.41180196 -0.44276863
000150 62 de e8 bd d9 86 27 3e 7a d2 97 3e 93 e5 ee be
       -0.11370541 0.16360034 0.29652768 -0.46659526
000160 21 11 b4 bf ee 83 88 bd ef 24 45 be 0f 69 ab 3e
       -1.4067727 -0.066657886 -0.1925237 0.3347859
000170 10 cf 0a bf 0b 40 68 3e 4b 43 1b 3e d4 13 d4 3e
       -0.542222 0.2268068 0.15162389 0.41421378
000180 50 b0 6b bf 6a 4d d6 be 53 19 91 3f 60 fb 16 bf
       -0.92065907 -0.41855937 1.1335853 -0.5897732
000190 7a 33 e2 bd 37 17 6a be e9 ed ff 3e de 50 30 3f
       -0.110449746 -0.22860418 0.499862 0.68873394
0001a0 a3 e3 c7 3d 0f 5d 63 3f 67 b7 91 bf 56 4f 97 3e
       0.09760215 0.8881387 -1.1384095 0.29552716
0001b0 b3 08 1c bf fb 20 91 bf df ae db bd 9d e8 87 3f
       -0.60950774 -1.133819 -0.107267134 1.0617863
0001c0 d6 60 6a 3f ef e3 4a bf 3d ba 61 bf cf 17 fd be
       0.9155401 -0.7925405 -0.881748 -0.49432227
0001d0 f7 64 be 3d ce 68 9b bf 25 b1 4a bf 71 67 82 3d
       0.09296601 -1.2141359 -0.7917655 0.06367386
0001e0 ce 82 8c bf 7e 93 cb be 75 62 5c bf d1 05 68 3f
       -1.0977418 -0.39760965 -0.86087734 0.90633875
0001f0 31 38 66 be f5 8a 06 3f 38 fb 8e bf c9 c3 76 bf
       -0.22482373 0.5255578 -1.1170416 -0.96392494

rnn.weight_ih_l1 f4 [128, 32]
000000 3b 83 0d 3f fb 18 44 3f 1c fe 4b 3e 0c 91 79 bf
       0.55278367 0.7660062 0.19921154 -0.9748695
000010 d2 44 29 3f ef 14 20 bf a9 ca 57 bf 06 e6 39 bd
       0.66120636 -0.6253194 -0.8429361 -0.045385383
000020 3b a1 6c bf 80 f8 31 3d b6 6d 92 bf 9a 42 01 3f
       -0.9243352 0.04344988 -1.1439731 0.5049225
000030 97 70 8a bf 8d 48 5b 3f 94 96 49 bf ad 59 be 3f
       -1.081561 0.8565758 -0.7874539 1.4871117
000040 61 6b 26 3f d5 47 47 bf 90 55 30 bf 75 54 0a bf
       0.650076 -0.7784398 -0.6888056 -0.5403512
000050 a5 2d d7 3e df c8 80 3f 7a d1 88 bf 7a 4b 3a 3f
       0.42027012 1.0061301 -1.0688927 0.7277142
000060 d8 fa 64 3f 9b 2c 82 bf 3d 0d 6e 3f 51 46 89 bf
       0.8944526 -1.0169863 0.9298895 -1.0724584
000070 aa 8f 4e 3e 23 78 e0 be 40 f3 8c bf ea 92 18 3f
       0.20171991 -0.43841657 -1.1011734 0.59599173
000080 3f 6d 18 3f 27 33 f5 3e c2 6a ac bf 62 29 29 bf
       0.59541696 0.4789059 -1.347008 -0.6607877
000090 5a b0 cf bf e0 70 c6 3f eb c4 13 bf f8 4e 77 bf
       -1.6225693 1.5503197 -0.5772235 -0.9660487
0000a0 87 51 6e 3f a7 6c 05 40 f6 27 41 bf d4 95 fa 3c
       0.9309315 2.0847566 -0.754516 0.030589022
0000b0 18 56 06 c0 3f 21 17 bf 96 d1 78 3f dc ff d8 3f
       -2.0990047 -0.59035105 0.971948 1.6953082
0000c0 96 1d d5 3f 1e 52 b0 bf 62 df 02 3f cb d9 9f 3f
       1.6649654 -1.377506 0.51122105 1.248834
0000d0 10 8f 1f bf 0a ca 0c bf 35 1e 2f be 02 cd a7 bf
       -0.6232767 -0.5499579 -0.17101367 -1.3109438
0000e0 9a 6d 98 be 74 28 a6 bf f1 3e 29 3f b8 b6 f6 bf
       -0.2977112 -1.2981095 0.66111666 -1.9274511
0000f0 68 ec 95 3e 6a 46 fe bf 0f 6f e0 3e 56 91 93 3f
       0.29281926 -1.9865239 0.4383473 1.1528728
000100 51 14 06 be 34 3f f5 be 84 1a 73 3f c7 5f 97 3d
       -0.13093688 -0.47899783 0.94962335 0.07391315
000110 a9 63 24 bf c2 50 a0 be 3a 1c c5 bf 57 c4 01 3f
       -0.6421457 -0.31311613 -1.5399239 0.50690216
000120 4e 28 c6 bd 6d cd e5 be f3 54 eb 3e 34 cb 69 be
       -0.09675656 -0.4488329 0.4596325 -0.22831422
000130 1d ad 90 3f 47 84 0a 3f 78 49 aa be 59 da 4f bf
       1.130283 0.5410809 -0.33259177 -0.8119255
000140 d3 6c 3a bf 6a e4 19 3f 6a 2d 05 bf ea f0 2d bf
       -0.728223 0.6011416 -0.5202242 -0.6794573
000150 30 32 97 3d 83 14 c1 3e e5 84 ad 3f 9d 5c 65 3f
       0.073826194 0.37710962 1.3556181 0.8959444
000160 9a 31 ce bc 8a 61 4f bf 86 05 d5 be a6 73 59 3f
       -0.025170136 -0.8100821 -0.41605777 0.8494209
000170 37 ff c4 be 0e a0 1d 3f aa f8 26 be 30 0b 83 bf
       -0.38475963 0.6157235 -0.16305795 -1.0237789
000180 e2 90 4a 3f 95 a5 ea be 57 ee ac bd 6d b3 5d bf
       0.79127324 -0.45829454 -0.08443897 -0.86601907
000190 17 a5 ef be 28 29 6e 3f 2c b1 85 bd 48 8a 89 3d
       -0.4680564 0.9303155 -0.065279335 0.06715828
0001a0 92 73 7c 3f 0a 19 87 3e 3b 6e 10 bf 32 c2 5a 3e
       0.98613846 0.2638629 -0.564182 0.21363142
0001b0 21 19 40 bf c9 33 83 3e 35 06 35 3f 0e e3 ed 3e
       -0.75038344 0.25625446 0.70712596 0.4646229
0001c0 3b f7 cb 3e 6d 1d b5 3e cf 60 1b 3e 46 45 91 3e
       0.3983706 0.35374013 0.15173648 0.28373164
0001d0 c1 c1 58 3f f5 78 12 be ac 30 01 bf bf e7 88 be
       0.84670645 -0.14303954 -0.5046489 -0.26739308
0001e0 2f 49 27 bf bd 73 27 bf 0d c8 5b 3f 14 80 e9 be
       -0.65346044 -0.6541098 0.8585213 -0.45605528
0001f0 ed b1 5c bb 15 d8 d1 be 00 a7 a6 3e 20 35 2d 3d
       -0.0033675388 -0.4098517 0.32549286 0.042286992
000200 3d 6c 45 be b8 48 c5 3e b2 b9 a9 3f 1b d9 35 3f
       -0.19279571 0.38532043 1.3259795 0.710344
000210 5e af 68 3d 40 64 f2 bd 91 a6 d6 be eb 84 83 3f
       0.05680787 -0.118355274 -0.41923955 1.0274938
000220 c2 62 bf be 43 15 af bf 3c 0f 02 3f ef 27 3d 3f
       -0.37380034 -1.3678364 0.50804496 0.7388906
000230 99 56 12 bf 5b 84 06 bf 91 c9 96 be 83 a8 7e bf
       -0.5716339 -0.5254571 -0.29450658 -0.9947588
000240 b6 fc a2 bf ab f2 58 be b6 01 1c bf 2f b0 27 bf
       -1.2733371 -0.2118632 -0.6094011 -0.6550321
000250 d2 0a 10 bf d3 16 8e 3e 48 97 c8 3e ea 14 de 3e
       -0.5626651 0.27751788 0.39177918 0.4337533
000260 bf e2 5f bd b7 94 78 3e 2e 26 51 bf 35 06 a1 3f
       -0.0546596 0.2427548 -0.8169888 1.2580019
000270 61 a6 9b bf dc d4 af 3f 3d aa a1 bd 63 bf 37 3f
       -1.216015 1.3736835 -0.078937985 0.7177641
000280 8c 63 b3 3d 6e 47 6a bf ad cb 36 3b e7 2f 44 3f
       0.087592214 -0.91515243 0.0027892396 0.76635593
000290 4d f1 3c bf 0e 1e 1c be 6b 5f 81 bf b6 0e 08 bf
       -0.73805696 -0.1524584 -1.0107244 -0.5314745
0002a0 7f 38 a0 bd 36 68 9f 3e d6 e4 d7 3e a7 fc 4e bf
       -0.07823276 0.31134194 0.42166775 -0.80854267
0002b0 21 ee 72 3f 1d 73 43 3f 75 39 e2 be 76 ae 3b bf
       0.94894606 0.76347524 -0.4418446 -0.7331308
0002c0 76 ac 9c be b7 aa e6 be 3f e5 06 be 1c 82 80 be
       -0.30600327 -0.4505212 -0.13173388 -0.25099266
0002d0 4f e4 00 bf f7 3c 18 be 34 52 41 3f 4f c9 cb 3e
       -0.5034837 -0.14867006 0.75516057 0.39802024
0002e0 3a e3 4d be 57 4f 01 3f 3e 1b d8 be 18 1a 95 bc
       -0.20106211 0.5051169 -0.42208284 -0.018200919
0002f0 51 03 f2 3e 39 44 d7 bd 9f 20 18 bf 10 eb 68 3d
       0.47268155 -0.10511059 -0.59424776 0.056864798
000300 73 61 3b be cd e9 87 bf 95 70 9a 3f 79 54 91 3e
       -0.18298893 -1.0618225 1.2065607 0.2838476
000310 dc 61 21 be 6c b6 ae bf a2 3b 85 bf c7 5b b3 3d
       -0.15759987 -1.3649421 -1.0408823 0.087577395
000320 d3 c3 a9 bf 62 7f 46 bf c0 ce 13 3f 9e cd 97 bd
       -1.3262886 -0.7753812 0.5773735 -0.07412265
000330 32 8a 5a 3f 22 d9 df 3e 0e b0 74 bf 28 d9 3a bf
       0.8536712 0.43720347 -0.9558114 -0.72987604
000340 2b 09 76 be 25 73 08 bf 3f 71 8a bf c0 74 7f bf
       -0.24026935 -0.53300697 -1.081581 -0.9978752
000350 bb 26 2b bf d2 08 42 3f 9b 71 8c 3f 91 61 7e 3f
       -0.66855973 0.7579471 1.097217 0.99367625
000360 a1 62 d5 be 7f ed 49 be ea d7 fb be a7 43 99 3e
       -0.4167681 -0.19719504 -0.49188167 0.29934427
000370 69 a3 e3 3d 67 48 8b 3e 4e 81 21 bf f3 3f d0 be
       0.111151524 0.27203676 -0.6308793 -0.4067379
000380 20 0d d9 3e 3f 07 a2 bf 37 58 90 3f 32 ae 50 3e
       0.42392826 -1.2658461 1.1276921 0.2037895
000390 2e 94 34 bf 90 55 eb bf 74 09 a6 3e 59 90 94 3e
       -0.70538604 -1.8385487 0.32429087 0.2901638
0003a0 1f 28 e8 bf 2c 49 2d bf f9 10 64 3e 5a 35 d9 3f
       -1.8137244 -0.67689776 0.222721 1.6969407
0003b0 b7 d2 47 3e df 91 9b 3e 2c ee 8a bf b1 02 92 3e
       0.19513975 0.30384728 -1.0853934 0.28517678
0003c0 39 4d 8d bf dc 3a 28 bf ae f4 92 bf 82 a3 c4 be
       -1.1039191 -0.6571481 -1.148092 -0.38405997
0003d0 1f b5 a9 be e1 3f 4e 3f 18 f2 7a 3f c9 97 92 bb
       -0.33145997 0.8056622 0.98025656 -0.0044736606
0003e0 75 db 48 bf cb b6 73 3e aa d1 01 be 3b d4 6d 3f
       -0.78459865 0.23800199 -0.12677637 0.92901963
0003f0 d0 8d 45 be 76 be 5f 3f b6 a4 c4 be 77 5d 34 be
       -0.19292378 0.87399995 -0.38406914 -0.17613779

rnn.weight_hh_l1 f4 [128, 32]
000000 68 c9 0e 3f 61 e4 54 3f b9 b3 55 3d fc 50 90 be
       0.5577607 0.8316098 0.05217335 -0.28186786
000010 7e 3a 80 3e 99 63 31 bf 3d d4 94 be 00 6a 8c 3e
       0.25044626 -0.692926 -0.29068175 0.27424622
000020 76 dc 22 3e f0 64 0f 3e 8b e3 e4 3e 36 2b 1b bd
       0.15904412 0.14003348 0.44704852 -0.037883006
000030 7a f8 c5 bf 0c d3 cf 3d f7 0d 3a bf 43 9b 11 3e
       -1.5466454 0.10147676 -0.7267756 0.14219384
000040 5b 58 18 3f 33 f9 1f bf f2 c2 b6 be 8a 87 af be
       0.5950982 -0.6248962 -0.35695606 -0.34283096
000050 8f df 05 bf 3e af c7 bd 5f 52 99 be 8d e8 72 bf
       -0.5229425 -0.09750222 -0.29945657 -0.94886094
000060 77 bf 8b 3d f8 6a b7 3e 2f 04 04 3f c6 53 0c be
       0.068236284 0.35823798 0.51568884 -0.13703832
000070 bd 0e 5b 3e ae cf 43 3f 22 01 bc 3b 1e 0b f3 be
       0.21392341 0.7648877 0.0057374397 -0.4746942
000080 c9 ff a1 bf a5 49 71 3f 3d 0e cb be 48 95 0b c0
       -1.2656184 0.94253 -0.396593 -2.1809864
000090 b4 0c 11 bf 35 e5 30 3d 08 c2 19 3f fb 3c db bf
       -0.5666001 0.04318734 0.60061693 -1.7127985
0000a0 2a 8d 90 be 6b e0 dd 3e ff a7 4d 3f 37 51 75 3f
       -0.282327 0.4333528 0.80334467 0.9582705
0000b0 8f 16 e7 bf ad 05 54 bf 4a eb 50 bf 82 f5 4d bf
       -1.8053759 -0.8282116 -0.8160902 -0.8045274
0000c0 82 04 24 be 9e 18 a4 bf 54 31 88 3f 47 69 17 bf
       -0.16017345 -1.2820013 1.0640054 -0.59145015
0000d0 5d 6f 5c bf de 16 a2 3e 4f e7 5b bf 4b 21 32 3f
       -0.86107427 0.3165807 -0.85899824 0.6958205
0000e0 2c 38 d7 3e 77 ae 21 3f c7 80 9b 3f eb 92 3d be
       0.42035043 0.6315684 1.2148675 -0.18513076
0000f0 2c 30 80 3f 86 4d 12 bf eb 7a 3e bf a7 5e 4b 3e
       1.0014701 -0.5714954 -0.7440631 0.19860326
000100 d6 1f 83 3e 04 79 8c bf 8e 44 8c 3f 7f 39 30 3f
       0.25610226 -1.0974431 1.0958421 0.6883773
000110 5f 5b 06 3e ab f2 0c bf 59 4b a3 3e ea 99 88 3e
       0.13120793 -0.5505778 0.31893423 0.26679927
000120 af 8a 44 3f 33 97 a4 be 40 63 b1 be a8 5b 83 be
       0.76774114 -0.32146606 -0.34646034 -0.25655866
000130 dd 0c 77 3f d1 20 e7 3e 15 ca e8 3e d8 f2 91 3f
       0.96504 0.45142224 0.45466676 1.1402235
000140 c5 39 08 bf a5 6e 27 be b1 b0 7b 3f 1e 80 f2 3e
       -0.5321315 -0.16350801 0.98316485 0.4736337
000150 b4 d9 2e 3f 29 15 d0 bd e1 0a 90 3e 2b 4f 3e 3f
       0.6830094 -0.10160286 0.281333 0.7433955
000160 90 59 5d bb 96 40 b8 be 37 18 39 bf 78 02 ad be
       -0.0033775307 -0.35986775 -0.72302574 -0.33790946
000170 b6 16 6b be d1 2d 43 bf 85 22 14 3f 49 20 08 bf
       -0.22957882 -0.76241785 0.5786517 -0.53174263
000180 92 08 17 bf 41 ef 63 3f d2 c6 74 3f 06 cd 06 bf
       -0.5899745 0.8903695 0.95615876 -0.5265659
000190 ae ea 38 3e 8a 80 46 be 08 c0 cd bd ea ff 4d be
       0.18058273 -0.19384971 -0.10046393 -0.20117155
0001a0 6f b3 a7 bc b6 f0 3f bf 80 27 81 bd d5 4d 21 3a
       -0.020471303 -0.7497667 -0.06306362 0.00061532605
0001b0 b1 c3 20 bf f6 96 ae 3e 67 10 08 bf 73 98 06 3f
       -0.627986 0.3409955 -0.5315003 0.5257637
0001c0 b2 11 89 be 2d 0b 38 bf 71 b4 79 3f 20 b0 92 be
       -0.26771313 -0.7189205 0.97540957 -0.28649998
0001d0 e1 a3 4b bf 01 44 53 be e4 24 5e bf 4c d5 b4 3e
       -0.79546934 -0.2063141 -0.8677504 0.35318983
0001e0 4d be e6 3e 9b 72 e3 3d f1 61 06 3f 0a 1d 10 be
       0.45067063 0.11105844 0.52493197 -0.14073578
0001f0 90 af 31 3f 39 2b 82 3d f7 91 78 3e aa 39 e1 be
       0.6940851 0.063559 0.24274431 -0.43989307
000200 26 f7 99 3f fd 5d 44 3f 23 9a 74 3f 98 b0 3e 3f
       1.2028549 0.76705915 0.95547694 0.7448821
000210 ee 64 30 3f 46 9f 88 bf 04 94 18 bf 3e 84 a8 be
       0.68904006 -1.0673606 -0.59600854 -0.32913393
000220 77 59 17 be 54 47 92 3f f1 4e da be 41 80 f3 bd
       -0.14780222 1.1428018 -0.42638353 -0.11889697
000230 bc 01 fd be 11 3a 21 3f 42 ad c6 bc 09 11 69 3f
       -0.49415386 0.6297923 -0.024252538 0.9104162
000240 2b 6e 9f 3e 18 2b 91 be ca c5 88 bf 3b 20 b0 3d
       0.3113874 -0.2835319 -1.068536 0.085998975
000250 80 2a e3 be 47 5e e2 3e 88 cc 68 bf 02 68 45 bf
       -0.44368362 0.44212553 -0.9093709 -0.7711183
000260 37 6d 0e 3e f0 93 e4 3e 38 ab 63 3e 4a 36 88 be
       0.1390885 0.44644117 0.22233284 -0.2660392
000270 3c de a4 bf 65 21 34 3e 05 ad 68 3f 5a 86 b4 3e
       -1.288032 0.17590864 0.90889007 0.35258752
000280 a4 8b b0 3e 9e 0e 9f be a6 12 5a 3e e6 ca 2d 3f
       0.34481537 -0.3106584 0.21296176 0.67887723
000290 c8 09 da bf 0a bd dd be 81 5e 31 bf 5c 2f 70 3f
       -1.7034235 -0.43308288 -0.69284827 0.93822265
0002a0 e3 15 62 3f 7c 02 e3 3e 0e fd c2 3e 9f 05 ca 3e
       0.88314646 0.44337833 0.3808369 0.39457414
0002b0 f6 cd 84 3f be 5b 3d bf 4a a3 6a 3f 6f a6 24 3e
       1.0375354 -0.7396811 0.9165541 0.16079114
0002c0 85 f8 e7 3e 65 62 28 3f d0 e0 a5 3f d2 82 f6 be
       0.45306793 0.6577514 1.2959232 -0.48146683
0002d0 f9 a2 8f 3f ae 66 82 3e 4f c2 5a be 3c 8e 7d be
       1.122161 0.25468963 -0.21363185 -0.2476129
0002e0 ee b3 48 3f 8c e4 ce 3e 7a 86 2b bf 12 a9 0b 3f
       0.7839955 0.40408742 -0.6700207 0.54554856
0002f0 d4 c5 08 3d e2 6f 3b 3f 39 c4 cf bc bc cf 8d bf
       0.03339179 0.73217595 -0.025362121 -1.107902
000300 f3 25 8e 3f 33 ee 07 bf 95 89 07 3e 02 79 34 3f
       1.1105331 -0.5309784 0.13236077 0.70497143
000310 a5 d9 f8 3e a8 b0 6e bf fa 5e 97 bf 9a 42 20 3f
       0.4860355 -0.93238306 -1.182586 0.62601626
000320 46 3f 1f 3f c5 5b 15 3f cb 45 f1 3e 2e 21 41 3f
       0.6220592 0.58343154 0.4712356 0.75441253
000330 0f f9 44 3f 14 fb 0a 3f 57 35 03 3f 0b 6e 28 3f
       0.76942533 0.54289365 0.51253265 0.6579291
000340 b2 7c 4a 3f a6 5b 19 3f d4 ee 41 3f 9d a1 6f bf
       0.7909652 0.5990547 0.7575505 -0.9360598
000350 52 c1 56 3f 9c e1 f1 3e 43 cb 3a be 5f cd b8 be
       0.83888733 0.4724244 -0.182416 -0.36094186
000360 b2 7c 7f 3f 61 62 3f 3f 0e ce 0f bf 05 b1 5a 3f
       0.99799645 0.7475949 -0.5617379 0.8542636
000370 4b e3 b7 bd a7 1a 07 3f 37 dc 57 3f 73 b9 91 bf
       -0.089788996 0.52775043 0.84320396 -1.138472
000380 99 8a ed 3f cd 72 b0 be ad ce 2e 3f 29 19 07 3f
       1.8557922 -0.34462586 0.6828411 0.52772766
000390 bc ad c6 3f 96 a7 87 bf c0 e1 ad bf 87 74 cd 3f
       1.552177 -1.0598018 -1.3584518 1.6051186
0003a0 a0 d0 fe 3d 38 82 43 3f 77 a9 36 bf 8c 24 7e bc
       0.12442136 0.76370573 -0.7135233 -0.015511643
0003b0 98 a5 45 3d cc ec a0 3f f6 30 26 3f e1 0d 47 3f
       0.048253626 1.2572265 0.6491846 0.7775555
0003c0 6e 2a 99 3f e0 f0 55 3e 0f 6f 94 3e 58 6e 93 bf
       1.1966074 0.20892668 0.2899098 -1.1518049
0003d0 13 83 35 3f 68 e1 9e 3e ff d2 9a 3e 18 89 41 be
       0.7090313 0.31031346 0.30239102 -0.18899953
0003e0 21 7e 88 3f 70 ac c1 3e 3d c5 2d bf a2 fc c9 3f
       1.0663491 0.37826872 -0.67879087 1.5780222
0003f0 04 ee 88 bf b4 0d e6 3e 45 b6 86 3f 4a 21 03 bf
       -1.0697637 0.4493233 1.0524374 -0.5122267

rnn.bias_ih_l1 f4 [128]
000000 0e 6c 3e 3f 60 2b 94 3d fa 09 1f bb 0f dd b9 be
       0.7438363 0.072348356 -0.002426742 -0.36301467
000010 b3 6f 3e 3e ad 27 cb be 76 e7 7c bf 04 7d 08 be
       0.18597297 -0.39678708 -0.9879068 -0.1332894
000020 1b 09 30 bf 94 16 4d bf 3f 8a 75 3c b7 66 7f 3e
       -0.68763894 -0.80112576 0.014986574 0.24941526
000030 42 e9 0e be 63 a5 d3 bf e3 76 b2 bf 68 78 2b bf
       -0.13956168 -1.6534847 -1.3942531 -0.669806
000040 77 e8 9f 3e e8 0c 96 3d e4 f0 ca be 98 66 ab bf
       0.31232044 0.073266804 -0.3963691 -1.3390684
000050 1d 5e b3 be 68 15 ae bf 80 85 bd bf 85 64 ad bd
       -0.3503274 -1.3600283 -1.4806366 -0.08466438
000060 2e b2 4e bf a3 1c 11 bf 59 34 8f bd 24 7e 3a 3d
       -0.8074063 -0.5668432 -0.069924064 0.045530453
000070 eb a1 c5 3e 07 3c 8a bf 4d 7b 0e bf dd 1b 66 bf
       0.38600096 -1.0799569 -0.5565689 -0.89886266
000080 aa 0d 36 3f c7 ed 84 bf 13 8d 79 bf f4 6e 0a bf
       0.711146 -1.0385064 -0.9748089 -0.5407555
000090 5f 6b 12 3d a2 41 0d bf 1b 24 1d bf ae 08 75 3e
       0.03574693 -0.5517827 -0.6138322 0.23929092
0000a0 9d 2b a0 bf 24 ea 28 bf d5 bc b6 be 73 29 bb 3d
       -1.251331 -0.6598227 -0.35690942 0.09138765
0000b0 fb bc 52 be 82 1f c4 bf d4 33 17 be ce 0b 1a bf
       -0.20579903 -1.5322115 -0.14765865 -0.6017426
0000c0 10 35 c3 bd e7 c1 18 3e 21 e0 31 3d 8b 11 6c bf
       -0.09531605 0.14917718 0.043426637 -0.9221427
0000d0 bc 39 8c be f5 8f af bf 15 b5 79 bf 47 85 8e be
       -0.27387798 -1.3715807 -0.97541934 -0.27836058
0000e0 53 02 30 bf 39 d5 17 bf a9 68 be be 67 96 da bd
       -0.68753546 -0.59309727 -0.37189224 -0.10673218
0000f0 e5 0a d1 3e 3a 32 75 bf 85 c8 2a bf 7c dc 31 bf
       0.40828624 -0.95779765 -0.6671222 -0.6947706
000100 3c 9d 57 3e 8e 9d 39 3f 54 a7 1c 3f 97 34 cd be
       0.21056074 0.72506034 0.6119282 -0.40079185
000110 02 71 cf 3f 50 e2 36 3e 6b a3 bb 3d eb 83 ae 3d
       1.6206362 0.17859769 0.09162029 0.08521255
000120 f0 17 03 be aa f6 93 3e 8b 48 c7 be ce c7 19 bf
       -0.128021 0.28899127 -0.38922533 -0.600705
000130 f5 fb 19 bf 3d e5 97 3d 00 f3 56 bf 37 6d 44 3d
       -0.6015008 0.074167706 -0.8396454 0.047955718
000140 bd 31 32 bd e1 e8 c7 be 29 a9 7b bf a1 7a 22 3f
       -0.043504465 -0.3904486 -0.9830499 0.63468367
000150 b4 7f ea be a9 be 16 3f 32 bc 8b be a9 2b bb 3e
       -0.45800555 0.58884674 -0.2729202 0.36556748
000160 b3 67 c4 be ed 8f 0a bf 79 c0 ff 3e 6b 73 21 be
       -0.38360366 -0.54125863 0.49951532 -0.15766685
000170 8c dc 60 bf ba 56 26 bf 85 b5 eb 3e 87 cd 63 3f
       -0.8783653 -0.64976084 0.46036926 0.88985485
000180 5e 11 09 3e af 1e 8d bf 7f d6 94 bf bc 70 3d bf
       0.13385531 -1.1024989 -1.1627959 -0.74000144
000190 59 0a 68 3e 6c 1e 96 bf cc 8c aa bf 19 2a 40 3f
       0.22660197 -1.1728034 -1.3324218 0.75064236
0001a0 ee 7d b4 bf 3f 17 53 bf 5b 45 40 bf 76 0a 0b bf
       -1.4100931 -0.82457346 -0.7510583 -0.5431284
0001b0 f6 75 00 3d 3e 80 1e 3e 6e fc 74 be cd bd 27 bf
       0.031362496 0.15478608 -0.2392442 -0.6552399
0001c0 f2 ba 31 bf a1 3f 78 3d ad 09 75 be 39 91 ba bf
       -0.6942588 0.060607556 -0.23929472 -1.4575568
0001d0 78 0c 7f 3e 11 83 b4 bf 82 5c 4a bf 4c 77 24 bf
       0.249071 -1.4102498 -0.79047406 -0.6424453
0001e0 03 2c 51 bf 21 5d 11 bf 16 95 51 bf 2b e7 83 bf
       -0.8170778 -0.5678273 -0.8186811 -1.0304922
0001f0 8b be 0d 3f e0 24 a2 bf 5d 68 8f bf 71 fa a2 bf
       0.5536887 -1.2667503 -1.1203724 -1.2732679

rnn.bias_hh_l1 f4 [128]
000000 26 25 5a 3f 0d 57 0a 3e d2 ae f9 bd cc e6 ed be
       0.85212934 0.1350977 -0.121915475 -0.46465147
000010 db 30 5e 3e b2 ae 23 bf 1c 33 31 bf f8 30 ac be
       0.21698324 -0.6393844 -0.6921861 -0.3363111
000020 61 e2 53 bf c0 98 45 bf 59 77 a5 3e 61 18 6e 3e
       -0.827673 -0.77186203 0.32317618 0.23251487
000030 36 0e b1 be 08 6f c5 bf ce 0a b6 bf ee a7 44 bf
       -0.34581155 -1.5424509 -1.4222047 -0.7681874
000040 af b8 49 3e a0 0e 34 be 38 c9 03 bf 5f 8c 86 bf
       0.19699357 -0.17583704 -0.5147891 -1.0511588
000050 bd f1 a8 be e7 52 ba bf 9c 11 c4 bf 00 3a d2 bb
       -0.32996932 -1.455655 -1.5317874 -0.0064156055
000060 9b ff 66 bf 0b 9c 32 bf 86 b9 90 be 22 f5 9f 3b
       -0.90233773 -0.6976935 -0.28266543 0.004881517
000070 bd c8 13 3f 74 d4 8f bf b5 60 8e be a2 3d 76 bf
       0.5772818 -1.123671 -0.27808157 -0.96187794
000080 50 fc 4b 3f c5 f0 8a bf b7 c0 97 bf 69 62 05 bf
       0.79681873 -1.0854727 -1.1855687 -0.52103287
000090 26 8a 6b 3e 3f 9a 26 bf fa ad 0d bf cf 5a 81 3c
       0.23001918 -0.6507911 -0.5534359 0.015790371
0000a0 5a d4 76 bf 9b f3 ef be 62 85 1e be eb c2 e0 bc
       -0.9641777 -0.46865544 -0.15480569 -0.027436694
0000b0 71 4d df be 9f 39 aa bf 94 e7 36 be 4a f2 03 bf
       -0.4361377 -1.3298835 -0.17861778 -0.5154158
0000c0 51 54 e1 3d dd 58 e6 bb c2 ae a0 3e 5a 3d 69 bf
       0.1100241 -0.0070296363 0.3138333 -0.9110924
0000d0 91 a6 ec be 2b 02 9f bf cc 2f 5f bf 60 62 96 be
       -0.4622083 -1.2422537 -0.8718231 -0.2937193
0000e0 90 2f 20 bf 4b ee 0e bf f0 51 c5 bd ab d6 41 bd
       -0.62572575 -0.55832356 -0.09634769 -0.047323864
0000f0 9a 47 2e 3f 3f 1c 66 bf e6 e4 56 bf ab c9 2b bf
       0.68078005 -0.8988685 -0.8394302 -0.67104596
000100 3c ee 78 3e 84 9f 32 3f 02 19 c2 3e 32 2a 32 be
       0.24309629 0.6977465 0.37909704 -0.17398909
000110 60 9c cb 3f b1 90 06 3e 90 88 58 3d e8 ca 57 bd
       1.5907097 0.13141133 0.05286461 -0.05268374
000120 55 d1 12 be 7a 87 20 3e 9a 86 f1 be d3 0b 1d bf
       -0.14337666 0.1567668 -0.47173005 -0.6134617
000130 51 c1 f2 be 81 ed 3d be 95 47 07 bf 7e e1 39 3c
       -0.47413114 -0.18547632 -0.528436 0.011345265
000140 63 fa 89 bd 4e 81 08 bf 3a 8d 91 bf d9 2f 23 3f
       -0.067372106 -0.53322303 -1.1371224 0.63744885
000150 39 57 4a be 84 62 0e 3f 4b 56 82 be cf 81 f2 3e
       -0.19759835 0.5561907 -0.2545646 0.4736466
000160 5c 1c 2c be e0 f9 0b bf a8 15 f8 3e a8 bf 48 bd
       -0.16807693 -0.54678154 0.48454022 -0.049010903
000170 86 16 5f bf 35 10 3e bf d8 92 a9 3e 2b d4 6e 3f
       -0.87143743 -0.7424348 0.33119845 0.9329249
000180 4b 46 da 3e 38 37 6c bf e8 76 8c bf 0b a8 45 bf
       0.42631754 -0.9227176 -1.0973787 -0.7720954
000190 4a ec cf 3e 3d 91 78 bf 47 94 ad bf fd 60 1e 3f
       0.40609962 -0.97096616 -1.3560876 0.6186674
0001a0 ef 24 bd bf 38 6c 53 bf 40 e1 34 bf 48 a3 16 bf
       -1.4776896 -0.82587004 -0.70656204 -0.588429
0001b0 ae 54 a6 3d d5 da 12 3e d1 04 06 bf ec 99 46 bf
       0.0812162 0.1434129 -0.523511 -0.77578616
0001c0 11 be 3e bf 1a eb 3a 3e 33 44 a8 be 8b 34 bb bf
       -0.7450877 0.18253747 -0.32864532 -1.462541
0001d0 be db 81 3e 39 69 ca bf 87 b7 2f bf 54 66 22 bf
       0.25362962 -1.5813361 -0.68639416 -0.6343739
0001e0 c7 b9 0e bf 66 03 4c bf db 6a 33 bf 2d 80 89 bf
       -0.55752224 -0.79692686 -0.70084924 -1.0742241
0001f0 42 63 0c 3f 2d 1d 91 bf 08 7b 68 bf 07 32 b0 bf
       0.54838955 -1.1337029 -0.9081273 -1.3765267

distribution_projector.weight f4 [2, 32]
000000 db e3 50 bf 16 bc 5f bf 44 b2 01 3e 9e c8 81 be
       -0.8159768 -0.8739637 0.12665659 -0.2534837
000010 0b cd de be 65 38 1c 3e a7 c7 02 bd f2 d6 e1 3e
       -0.4351581 0.15255888 -0.031928685 0.44109303
000020 26 07 98 3d 62 77 9c be 9a 3d fc 3d 64 09 d0 3d
       0.074232385 -0.30559832 0.12316437 0.10158041
000030 fa 0c b7 be 7a da c6 bd 62 cd 68 be 7b 0b 1c be
       -0.35752088 -0.0970964 -0.22734597 -0.15238754
000040 d3 cb 91 3d 70 2c 9b be 94 0b b0 3e 23 a6 2e 3e
       0.071189545 -0.3030734 0.34383833 0.17055564
000050 ef 39 0f 3f b9 aa b5 3e 71 8e eb be 11 4f 4f 3e
       0.55947775 0.35481814 -0.46007112 0.20245005
000060 48 d7 aa bd 14 e2 82 be 43 19 9c 3e 01 7b c7 bd
       -0.08341843 -0.2556311 0.30488023 -0.09740258
000070 e7 ed 00 3e 80 06 12 bf a9 23 99 bc f1 0f e7 bd
       0.12590753 -0.5704117 -0.018693762 -0.112823375
000080 e9 6d be be 15 6c 88 3e 9a 6e 1a 3e e5 bd 11 3f
       -0.3719323 0.2664496 0.15081254 0.5693038
000090 37 e7 5d bf 05 0b 41 be 40 70 31 3e 9f 81 2e be
       -0.8668093 -0.1885186 0.17327976 -0.17041634
0000a0 ae d2 ce 3e 40 de a9 3e 2c 05 d5 3d 44 90 96 3e
       0.4039511 0.33177376 0.10401377 0.2940694
0000b0 ee 80 ad 3e 30 96 44 bf d6 6a 10 bf f3 f6 f2 3a
       0.33887428 -0.7679167 -0.5641302 0.0018536731
0000c0 d9 26 63 3e 2c c8 1e 3f ef dc c8 3e 7d d3 40 3f
       0.22182788 0.6202419 0.3923106 0.75322706
0000d0 8a de bf bd d4 10 f7 be 0f bc d0 3e d6 21 04 be
       -0.09368618 -0.48255026 0.40768477 -0.12903532
0000e0 f4 49 bc 3e 5e 47 37 bf b0 87 a6 3e b2 80 df bd
       0.36775172 -0.7159327 0.32525396 -0.109132186
0000f0 cc 2b 6a 3f 48 f6 24 bd 1b 87 05 be 86 c1 25 be
       0.9147308 -0.040273935 -0.1303982 -0.16187105

distribution_projector.bias f4 [2]
000000 d9 63 33 be 48 d5 3d bd
       -0.17518558 -0.04634598
